python-src/cameraParams.npz (npz, 5936 bytes, 4 tensors)

cameraMatrix f8 [3, 3]
0	0x40c028863df394a2	8273.048765609336
1	0x0000000000000000	0.0
2	0x40837d6a59454d02	623.6769280828596
3	0x0000000000000000	0.0
4	0x40bfc6d58dfbbe3d	8134.834197744317
5	0x407dd9df71c1a629	477.61705184597173
6	0x0000000000000000	0.0
7	0x0000000000000000	0.0
8	0x3ff0000000000000	1.0

distortionCoefs f8 [1, 5]
0	0xbffd25c432c0370d	-1.8217203123526275
1	0xc060cbc659013ff0	-134.36796236270993
2	0xbf8b7058c27ae37f	-0.01339787810808146
3	0x3f7250f4566da844	0.0044717354238433295
4	0x40d010cfb7939277	16451.24557961753

rvecs f8 [100, 3, 1]
0	0xbfc2c07e693afccb	-0.14649944437221615
1	0x3fc68deb2048c567	0.1762060077322005
2	0xbff834ab9bb95198	-1.5128589709248441
3	0xbfbe8861da43b651	-0.11926852778170739
4	0x3fc267c69e433f37	0.1437919876830109
5	0xbff8c58f757e9073	-1.5482325162529633
6	0xbfb9f618c23ec8fa	-0.10141138784709716
7	0x3fc5992923eaafa4	0.16873659375903316
8	0xbff9210eff599f66	-1.570570943318637
9	0xbfbeed985f7f6d42	-0.1208129151486235
10	0x3fc982408403d85f	0.19928747602506555
11	0xbff806af11e3b6f4	-1.5016318033989906
12	0xbfbca30b433db209	-0.11186285392404484
13	0x3fc5ccaea3528198	0.17030890440674962
14	0xbffa2c563e9bdc54	-1.6358244367272805
15	0xbfc3e7ee2e5b9b87	-0.15551545394484043
16	0x3fc3dc4fdb7622c1	0.15516088691608412
17	0xbff8da1129891ebd	-1.5532390234456408
18	0xbfbf8d1a765ffcc7	-0.12324681653989265
19	0x3fc2e91772aab2df	0.14773839091267058
20	0xbff961af04659d2b	-1.5863485500102097
21	0xbfbd5c6b7f53a26b	-0.1146914659362978
22	0x3fc12cac8f922658	0.13417584429071172
23	0xbff8e44398986174	-1.5557285271407553
24	0xbfc4753a3dc9c291	-0.15982749955175682
25	0x3fc315135af9196c	0.14908067647975132
26	0xbff9132787b0b20c	-1.567176370658788
27	0xbfbb1afaf9c0c41c	-0.10588043782696882
28	0x3fc6e42da90d0ad3	0.1788384509510111
29	0xbff9fc86785e744a	-1.6241516782677246
30	0xbfc25515eefb7c1c	-0.14322160882054014
31	0x3fc2af93cb977610	0.14598319474218657
32	0xbff8fbcae888f7da	-1.5614728053474125
33	0xbfbbe9df9a1b11ec	-0.10903737556788656
34	0x3fc0198b6e5148e7	0.1257795609149703
35	0xbff93fdded9e8e8a	-1.5780925066000315
36	0xbfc1c8386f6f0157	-0.13892274323553508
37	0x3fc7c4a37aacbf88	0.18568843355160092
38	0xbff84b70369cddf7	-1.5184175618468296
39	0xbfbb0d67e70bbf82	-0.10567330733078786
40	0x3fc01a0e4ae1be7e	0.12579516083086512
41	0xbff93c3114f372f7	-1.5771952455899603
42	0xbfb8feb729922bc4	-0.097636649750867
43	0x3fc412cc48e04462	0.15682366903687056
44	0xbff90eb21dc0f7f4	-1.5660878336198012
45	0xbfbffcaeb92c083b	-0.124949379165657
46	0x3fc071ebf30196e5	0.1284766136697534
47	0xbff8e6d7574cc196	-1.556357708945233
48	0xbfbdd29784260029	-0.11649462677269241
49	0x3fc4aeb124bb90a5	0.1615811757429856
50	0xbff9503ab04967c3	-1.582087219829632
51	0xbfc0b0b901c85298	-0.13039314829861293
52	0x3fc2eed36694ea92	0.14791338452217367
53	0xbffb07df87e58db1	-1.6894221600021917
54	0xbfc45a76b17f5dc4	-0.15901073138114274
55	0x3fc071a7166e3818	0.1284684047245157
56	0xbffca5c74c2981a9	-1.7904732680400264
57	0xbfbf9faba5a9376c	-0.1235301284261518
58	0x3fc26f2e4553b1f6	0.14401796708206377
59	0xbff90aada35830e3	-1.5651070004124044
60	0xbfbd3d6dce3b09e2	-0.11421858105590091
61	0x3fc78543305aae09	0.18375434742971233
62	0xbff98a7ca1ea39cd	-1.5963102650454062
63	0xbfb9960577c05f7c	-0.09994539426440768
64	0x3fc1532b090f4b90	0.13535058920259901
65	0xbff9494ff0132f5d	-1.5803985002448464
66	0xbfc423744e219ef3	-0.15733197989469935
67	0x3fc0d7a926e2f7c0	0.13158144377478997
68	0xbffc4be9c1fa60da	-1.7685334756152344
69	0xbfc0672a2e93db44	-0.12814833902640477
70	0x3fc2a6eaf8c04e71	0.14571892877630746
71	0xbff8f041cb08ea42	-1.5586564951942283
72	0xbfbe6f561982a8b2	-0.11888635752498791
73	0x3fc59f587fcdd7bf	0.16892534485276475
74	0xbff776dce267c1ad	-1.4665192455250733
75	0xbfbc7da4ed7e53ea	-0.11129217909031267
76	0x3fc9b4118d7f4b39	0.20080775651021002
77	0xbff851c18ef606c5	-1.5199599823394447
78	0xbfbf822393545f83	-0.12307951304353364
79	0x3fc13a1fc1b86764	0.1345863052272832
80	0xbff8ddce173755f7	-1.5541516215210984
81	0xbfc0b59e3b1e71bd	-0.13054254423776782
82	0x3fc37c4a60dbfc67	0.15223054627856245
83	0xbff9393e8e549901	-1.5764756736548977
84	0xbfc08d92e3844e19	-0.12932048901767315
85	0x3fc29199b3d1427e	0.14506837158343794
86	0xbff918953b2af35a	-1.5685016928902855
87	0xbfc23b0e04864543	-0.14242720814631057
88	0x3fc35fcc4c3baa7d	0.15136102411573296
89	0xbff83e2926078120	-1.5151759610672073
90	0xbfc1741e178f8925	-0.1363561263124861
91	0x3fc317de683426c2	0.149165917282792
92	0xbffb26f7b3eebc0f	-1.6970135716071615
93	0xbfc0ed1a537e5a5a	-0.13223580433687482
94	0x3fc0d7b2f2a17281	0.13158261153411746
95	0xbff92fd4be413afe	-1.5741774970844626
96	0xbfc2eb8ba437b32e	-0.14781327742039124
97	0x3fc14de991d5cfbc	0.13519019718989778
98	0xbffb6b608f402cc1	-1.7137151332597542
99	0xbfc257aebb9f622f	-0.14330085908183451
100	0x3fc21f8a4156adaf	0.14158752622948387
101	0xbffb1d4e689286e4	-1.694654854284118
102	0xbfbf6e94b31d3d7d	-0.12278107998758077
103	0x3fc16c04c20c85f9	0.13610896563572775
104	0xbff8fcc87a2084d2	-1.561714627321909
105	0xbfc2aba3d7e22ed2	-0.14586303750217283
106	0x3fc358020a7d155e	0.15112329017771747
107	0xbff88f64312e209b	-1.5350076600171068
108	0xbfc10c0e91ca118d	-0.13318044775600094
109	0x3fc1aeb166a4d0c7	0.1381437064352495
110	0xbff93d9392624879	-1.5775333135721026
111	0xbfc45ff2481fc72e	-0.1591780521553629
112	0x3fc5e957530dddb6	0.17118350558642498
113	0xbff82d890af57210	-1.5111170223309536
114	0xbfc051df5679aab3	-0.12749854776787614
115	0x3fc305c1dff068ec	0.14861319956327834
116	0xbff94e60a0b3e26f	-1.5816351201484868
117	0xbfb8a404f0e4d147	-0.09625273591229187
118	0x3fc3eb423dc7ca13	0.1556170274412386
119	0xbff91568509173a0	-1.5677264353937304
120	0xbfbebbdefcfa2b16	-0.12005418468667658
121	0x3fc6148452921d22	0.17250112563872572
122	0xbff7ce131a22e254	-1.4878111859271899
123	0xbfc15cf1e95e7e0a	-0.13564895529724225
124	0x3fc2ed881059e4a2	0.1478738860930991
125	0xbffabbf993f06490	-1.670892312895635
126	0xbfc241988d89144e	-0.14262682829772405
127	0x3fc25e969bb5f931	0.14351160624568984
128	0xbffb55b7f9f9cde1	-1.7084274067573164
129	0xbfc24dd438675aee	-0.14300015215004386
130	0x3fc30c2a89a96f6c	0.1488087818314584
131	0xbff8b7c48555f325	-1.5448651512553593
132	0xbfc16b6364331d7e	-0.13608972923814727
133	0x3fc82655343dc207	0.18866982508508576
134	0xbff84496f16cdd9e	-1.5167455130266272
135	0xbfc1da1e0177be04	-0.1394689089934077
136	0x3fc3625240d5b8fb	0.15143802800907466
137	0xbff8523648e55588	-1.520071301221238
138	0xbfc0351f7284b4ed	-0.12662118045537998
139	0x3fc318e19d3defe7	0.149196817186634
140	0xbff9681b37b3f835	-1.5879165817164111
141	0xbfc1698aea46ac4a	-0.13603340567837768
142	0x3fc2db17c1b975e3	0.1473111816330138
143	0xbff93ad22576cf7b	-1.5768605674211063
144	0xbfc06f0002aac56a	-0.12838745241382848
145	0x3fc3022d923ad73b	0.14850396766785842
146	0xbff8b94483e4a109	-1.5452313568185352
147	0xbfbed156fcd51e3e	-0.1203817717806652
148	0x3fc6055c07538997	0.17203855855684644
149	0xbff75aa673498934	-1.4596313956649967
150	0xbfc4f5bc6cb5f8a0	-0.16374926860948325
151	0x3fbf4ccc65ecab2b	0.12226560104742805
152	0xbffcc3c61b11f744	-1.7977963502339245
153	0xbfc437fe57848b1a	-0.15795878671004787
154	0x3fc450d5ea3226b5	0.15871690688464005
155	0xbff89b64991b1167	-1.5379377346699472
156	0xbfc36ebdbc50cdde	-0.15181705184077904
157	0x3fc4eb0be94b1cf3	0.1634230507972699
158	0xbff873f1266cdb4d	-1.528306150530358
159	0xbfba80d6ce8a5ff7	-0.10352842848294573
160	0x3fc4f53048c18f20	0.16373256256621804
161	0xbff94d5daf98916e	-1.5813881739823858
162	0xbfc00d2abc136937	-0.12540182288541654
163	0x3fc13ae7537977d9	0.13461009574797236
164	0xbff8e2f24d587f5c	-1.5554068585697314
165	0xbfbee7cd370a022f	-0.12072451204040456
166	0x3fc182a1e74c608f	0.13679908555855433
167	0xbff8ca1fc3edfbda	-1.5493467000485368
168	0xbfbd618f83563a0f	-0.11476990658250251
169	0x3fc5af3b0e5e5906	0.16941011621083407
170	0xbff8a74437e28ebb	-1.5408365424163282
171	0xbfbf6f7a7f3b92e1	-0.12279477697627385
172	0x3fc5f256c0ab5fc1	0.1714580956238461
173	0xbff7a1c4563acfdb	-1.4769938820218076
174	0xbfc049ee210507b0	-0.12725617039001014
175	0x3fc35f1551ef60da	0.15133921147094648
176	0xbff8b5e1d78be247	-1.5444048328191842
177	0xbfbf13ab1946fb72	-0.12139386527176813
178	0x3fc354a67f8a647b	0.1510208246952834
179	0xbffa9e88bc88d1e3	-1.6637046208025985
180	0xbfbe3be85d74a08b	-0.118101618591597
181	0x3fc0968e8ea6c279	0.12959463086510306
182	0xbff8eb74bb015900	-1.5574843697446
183	0xbfbc9d19b8b405d2	-0.11177216300350004
184	0x3fc5d31944a091b6	0.17050472117365495
185	0xbff91e94987bb0e4	-1.5699659305928941
186	0xbfc0d5ad3d3b7e1c	-0.13152089586127225
187	0x3fc7da5826136e0f	0.1863508401792022
188	0xbff82b0e7892e9ac	-1.5105118474881278
189	0xbfc508bd0887f93d	-0.1643291751533499
190	0x3fc677f4776d0027	0.1755357344754895
191	0xbff7dacc11827f97	-1.4909172710394836
192	0xbfbf2ffdbbcce730	-0.1218260367867543
193	0x3fc64778b9a7f1f1	0.17405613961444957
194	0xbff76d15cf3042c6	-1.4641321271230239
195	0xbfc117b745744c25	-0.13353625193903543
196	0x3fc2a0b31f544a17	0.14552916555165105
197	0xbff8cf3c0206ad68	-1.5505943373817335
198	0xbfc07a04cb107e49	-0.12872371592765067
199	0x3fc29661549abd82	0.14521423941685546
200	0xbff985a40ae81ed5	-1.5951271463435905
201	0xbfc1511ba92ceef0	-0.1352877212574337
202	0x3fc20df0831ed11f	0.1410503998028014
203	0xbff8ccae908b5321	-1.5499711653002992
204	0xbfc25139e0d40e0e	-0.14310382345148337
205	0x3fc770b9c0eb17db	0.18312761230316607
206	0xbff839fc3c5a5ea7	-1.514156566385205
207	0xbfbfe47e9774920b	-0.12458029935493913
208	0x3fc8c66c644e0d87	0.1935554017801275
209	0xbff7ad5491755faa	-1.4798169786426834
210	0xbfc129cf6758851f	-0.13408844515019155
211	0x3fc34063ef09f86c	0.15040253803084924
212	0xbff9253da79eb6f3	-1.5715920016913827
213	0xbfc12fa203379706	-0.1342661395748836
214	0x3fc339ae5691b209	0.15019778468139602
215	0xbff93b64ad320334	-1.57700030950964
216	0xbfc40e6509c9aaca	-0.15668929078977661
217	0x3fc50bac56489ee5	0.1644187375361447
218	0xbff79f2f91fdbe47	-1.476363725927415
219	0xbfc311ffa0cbb46b	-0.14898677207330321
220	0x3fc2c5e769c84f06	0.14666454949530577
221	0xbff870f426d23af0	-1.5275765911534869
222	0xbfbd298a309cf723	-0.11391509711117158
223	0x3fc56b12fe90807f	0.16733014516740138
224	0xbff82da224886bb0	-1.5111409594598904
225	0xbfc277b3d4e6902d	-0.1442780293992895
226	0x3fc5cd340969e814	0.17032480678227613
227	0xbff85069016efdd1	-1.5196313911436514
228	0xbfc23b29b683824d	-0.14243050967981433
229	0x3fc7222a3ee7b546	0.18073013373888552
230	0xbff83a40a8bd80fd	-1.5142218200126643
231	0xbfba7bb3996d5402	-0.10345003600862415
232	0x3fbfb1ce7136a12d	0.12380686058043429
233	0xbff905f99540fc83	-1.5639587240437158
234	0xbfc0b9b39d4fee65	-0.13066716367017076
235	0x3fc0ac952d1dc95a	0.13026680663058238
236	0xbff92c0ed0d64dac	-1.5732563169193368
237	0xbfbd5e6d485e71de	-0.1147220899278589
238	0x3fc57bfca9839ca1	0.16784628178649988
239	0xbffa335b60bf6497	-1.6375383166507953
240	0xbfbe369d590cc33f	-0.11802085327213961
241	0x3fc6102404498acd	0.17236757478084144
242	0xbff7095e5e3d9ba0	-1.4397872620845433
243	0xbfc04020821d8230	-0.1269570002869087
244	0x3fc356d09d1faeb3	0.15108688041742865
245	0xbff8f93a01ab9029	-1.560846334957214
246	0xbfc121eacc0d2380	-0.1338475700706816
247	0x3fc34fd69100904d	0.15087396698175085
248	0xbff938057c540df5	-1.5761771065307333
249	0xbfc27d3a8eae315e	-0.14444667784517667
250	0x3fc6d7dc9c7770c1	0.1784625782009979
251	0xbff83bbe4c8a7ff4	-1.5145857801326175
252	0xbfb98660df7c7dc7	-0.09970670181473117
253	0x3fc0c5379fca5481	0.13101859380973127
254	0xbff943ec8f4b8e69	-1.5790830228296733
255	0xbfb6d46cc0965edf	-0.08917884542313058

tvecs f8 [100, 3, 1]
0	0xc02d55d020495652	-14.667603501274389
1	0x404d4d6706c914cf	58.60470661943838
2	0x4090bfca0094ee3a	1071.9472678442385
3	0xc0519ede03413a58	-70.48230058069146
4	0xc01f3c01e0cb06ac	-7.808600914375045
5	0x4090f3c637e7bed4	1084.9435726366255
6	0x404786310b30858e	47.048371695224986
7	0x403380f72a0c564b	19.50377142716597
8	0x40909aff3011dc1c	1062.7492068091005
9	0x4042f9a8256e82f8	37.950443915329686
10	0x404dac3c8164f2f3	59.3455964796939
11	0x40908f3861931b5d	1059.8050597176982
12	0x40465f8970fe2fa5	44.74638187800819
13	0x404329b2db0bed48	38.32577074129455
14	0x40909c58792a3f5f	1063.0863997079066
15	0xc053a24518fed550	-78.53546738515911
16	0x403abc0700955f85	26.734481846302078
17	0x4090f56551a7dab9	1085.3489443042038
18	0xc04ae0cc8ff40bbd	-53.75624274650861
19	0xc039dc193aa79bb0	-25.859759965820274
20	0x4090e43def6ea9b4	1081.0604836741522
21	0x40495fdeb583d983	50.74898404062244
22	0xc035425ea4e71d11	-21.259256655143933
23	0x4090921dd7aae322	1060.5291430188304
24	0xc044ad22e8705949	-41.3526278065279
25	0x404d89bc4c890839	59.07605892840406
26	0x4090d58e528ae7a5	1077.3889867500195
27	0x4047d97ec2090e6f	47.69918084566313
28	0x404636dcac2a55ea	44.428609390899354
29	0x409095f2c54ee8f7	1061.4870807962122
30	0xc0539d616907bf64	-78.45907045132259
31	0x403d4504f7b361d6	29.269607049269176
32	0x4090f7c3e7a3f09f	1085.9413133254636
33	0x404b3dc5383b007c	54.48258116608574
34	0xc0304b7d9b7dd920	-16.294885366654057
35	0x409090a964e6332f	1060.165423962473
36	0x40207b51ef17a342	8.240859481463875
37	0x404d9079330cd1b8	59.128698712596304
38	0x4090ac1bf87a512a	1067.027315055088
39	0x404b3f6fb497e99a	54.49559647958377
40	0xc0297e2378503328	-12.74636436442377
41	0x4090912981648ed7	1060.2905326568778
42	0x404a5ec57f0525ca	52.74040210486744
43	0x40281775f65c5f8c	12.045821856285123
44	0x409094b7b67859d5	1061.1794070057706
45	0xc0529ffd1651b16b	-74.49982221582256
46	0x402b62d7feb9e4bc	13.693054161254956
47	0x4090f6d20dcc48e2	1085.7051307601437
48	0x40446d2c93e4bef9	40.852922903721215
49	0x4037581ca198d8f3	23.34418687802913
50	0x40909fb72fdb2bc1	1063.9288934941726
51	0x403e9bf5d45429d4	30.60921980910082
52	0x4037054127a78d60	23.020525434881506
53	0x4090ad422e92477b	1067.3146307808045
54	0xc040894748382d64	-33.07248785727532
55	0xc011ed021d2beb27	-4.481453376584603
56	0x4090db6f935bb8f9	1078.8589605647705
57	0xc0519c0a93684562	-70.43814549620359
58	0xc02af9ee4439686d	-13.48814595413952
59	0x4090f1ed1556433e	1084.4815267065565
60	0x4047da88a7186453	47.707295309934715
61	0x404910f5e5dac26e	50.13250420743576
62	0x40909042bb76f80d	1060.0651682461641
63	0x404b953e158c07dc	55.16595715844571
64	0xbffc286044985049	-1.75985743327057
65	0x409092aa03dbc33d	1060.6660303438105
66	0xc0393431335bba56	-25.203875741858006
67	0xc01b755b11c26967	-6.864605214587164
68	0x4090d714b17a893e	1077.7702082773462
69	0x402e4998d93a67ed	15.143744266872057
70	0xc035c573a99b83a8	-21.771296120135645
71	0x4090b1f513f87fc5	1068.4893339946732
72	0x402b9879c27a73cf	13.797803952644157
73	0x40398178e4de7b0e	25.50575094634683
74	0x4090b6b2b45dfb07	1069.6745161709275
75	0x404660778f257fe0	44.75364865618735
76	0x404c7e2812df99a8	56.98559795301418
77	0x409089725024a733	1058.3616338469553
78	0xc0522560872dfe55	-72.58401660434295
79	0x40187c4525e91251	6.121357529020842
80	0x4090f41c8d55200e	1085.027882890779
81	0xc0400c7388d3308f	-32.09727583229061
82	0xc038bb9725e534d2	-24.73277508588655
83	0x4090d66b98ed2759	1077.60507555535
84	0x40342791a563fcfa	20.154566132460765
85	0xc03605dd686d7556	-22.022909666751126
86	0x4090ae48c25011cb	1067.5710537443981
87	0xc052a9f344312a06	-74.65547280121982
88	0x4046f1c478e04f70	45.88880835487987
89	0x4090f6cd099e74f5	1085.7002320059667
90	0x4039d2134924f683	25.82060677673736
91	0x4032e2965a76f336	18.88510671047262
92	0x4090b03727ed11ad	1068.0538632432974
93	0x4040c05ee09213ad	33.50289542324695
94	0xc037229f939d3197	-23.135247445943232
95	0x4090a01ecf93dea9	1064.0300887207652
96	0xc00c07058c6fd9c6	-3.503428551829731
97	0xc00e95c1cf133c93	-3.8231235673661756
98	0x4090c69dc203d93b	1073.6540604211175
99	0x400ed06358660169	3.851751986134492
100	0x3ff2cf9771ccfc79	1.1756815381375232
101	0x4090c13005c201d1	1072.2968969644173
102	0x4046bef4eba27af0	45.491849378906295
103	0xc036bf2f691d71db	-22.74681717842928
104	0x40909640f6e4ba91	1061.5634418238517
105	0xc051e945039962c7	-71.64483728388869
106	0x404932971b61982a	50.39523641839362
107	0x4090f522b312bfa8	1085.2838862351873
108	0x403a94b0bd43f4c8	26.580821827975143
109	0xc0364ead257fdd6c	-22.307329505650543
110	0x4090a709bad2d966	1065.7595017380895
111	0xc04ac348429a5128	-53.52564270529757
112	0x404c0b1aaf3c5883	56.0867518467576
113	0x4090df8b69bcf573	1079.8861455464182
114	0xc04868b6218732b9	-48.81805819608184
115	0xc039f7f621d3fc36	-25.968599428419303
116	0x4090e021a1376a8b	1080.0328415545252
117	0x40497e11ba60b034	50.98491601677998
118	0x403052bfb48a1fb8	16.323237689706474
119	0x409098875aa230fa	1062.1321816770928
120	0x40342c4d8e450b72	20.173058406693094
121	0x4039e0729268ccfb	25.876748228632078
122	0x4090b1dc0b178d18	1068.4648860626094
123	0x4035cb1c6894c615	21.793402229615896
124	0x402cdd48e0fc7d2d	14.43219664652005
125	0x4090b4fee23df0c1	1069.2489099195666
126	0x402eb3c55acd5ed4	15.351115071839935
127	0x402536585c4fa9bb	10.606142887806405
128	0x4090b973e161f5a6	1070.363164454096
129	0xc0535924f425f52f	-77.39288047510921
130	0x404128101585ffe7	34.312990847043515
131	0x4090f95d90ca7252	1086.3413726455951
132	0x402faf5490de5332	15.842442061557083
133	0x404de43e8f3fe7e8	59.78315916653065
134	0x4090a523d37b987b	1065.2849864303414
135	0xc05314f18669fb7d	-76.32724151944963
136	0x40450b4093729301	42.08790820211835
137	0x4090f7dacb120ecb	1085.963665277627
138	0xc04d5392b2dabaa4	-58.65291438751345
139	0xc039773e2bc0b420	-25.465792402788907
140	0x4090e64f36d39f0f	1081.5773575845558
141	0xc04325dffb3966fc	-38.29589786818357
142	0xc0394ab49f5ee85e	-25.291818581267187
143	0x4090d9dfa9e9964e	1078.4684216020573
144	0x3ff528a9c2f989d3	1.3224275222970518
145	0xc03738e03557fe8c	-23.222171148283948
146	0x4090bd6555078ff1	1071.3489571744542
147	0x402bee2bb4330f31	13.965177184326963
148	0x403983fd21e72bd1	25.51558124440982
149	0x4090b6ead3e6393e	1069.729323956722
150	0xc047c93e111b77ce	-47.57220662919245
151	0x4025038a68b22212	10.506915351624261
152	0x4090e6d26011b5c2	1081.705444599837
153	0xc040db8d22fb4a1a	-33.71524464864724
154	0x404de3f84354304e	59.781013885600814
155	0x4090cbd6e5957afc	1074.9598601681055
156	0xc03afc98e2665088	-26.986707830409188
157	0x404d9b337b7a7507	59.21250861625054
158	0x4090cb12a391273b	1074.7682020836062
159	0x404593799446982c	43.15214780280107
160	0x403598fee431acdd	21.597639333846804
161	0x40909d301b1258cc	1063.2969782702157
162	0xc0526edffe87ec5a	-73.73242152475123
163	0x4023693017fdedbd	9.705445050952102
164	0x4090f586cc5647ae	1085.3816388589144
165	0xc051a8f3171c75e2	-70.63983705310196
166	0xc004237c072704cd	-2.517326408270128
167	0x4090f2920e9ccfd8	1084.642633867441
168	0x404069ba09875353	32.825989905430696
169	0x4039ad7813819d25	25.677613467353826
170	0x4090a747967e63a3	1065.8199100254358
171	0x402e8269bbecf0a3	15.254712937043513
172	0x403980ba8cf1c4db	25.502846535707118
173	0x4090b5aa49476fb3	1069.4162951623846
174	0x4021a998595a040c	8.831240455854662
175	0xc0364d18f2101ab3	-22.30116188901111
176	0x4090b82a5a0d9c3a	1070.0413591505626
177	0x4042189ee14299f7	36.192348630447604
178	0x403b69f9e0613f22	27.413969062558984
179	0x4090a82ab58cc34c	1066.0417081827354
180	0x404a9a4cb7e7d564	53.2054662591934
181	0xc033ea2d4eb0345c	-19.91475383569592
182	0x40908fd2d5af3b56	1059.9558932666746
183	0x40434babd89a5e7e	38.59118182694964
184	0x4038db18da49b197	24.855847971908215
185	0x4090a2662711fa31	1064.5997584160762
186	0x40347aa3a7d7cf06	20.47905968683974
187	0x404e38a9b5e6d0d8	60.442679155066514
188	0x4090a1a4dbb17b16	1064.4109943133712
189	0xc04eee8d2d0ce360	-61.86368334893518
190	0x404b61fb37d32e23	54.765479066958754
191	0x4090e3d1a1d474ed	1080.954718894612
192	0x402bb2bcd95ffc46	13.84909705445001
193	0x40397f3c7b57f7ea	25.4970166291968
194	0x4090b66e675cc9e7	1069.6078161714775
195	0xc00eb8aefcb8ca9a	-3.8401775115865577
196	0xc0379c3ba7031947	-23.610285223251847
197	0x4090c1f4073a02ba	1072.488308817307
198	0xc050ce275ef34eb6	-67.22115300903792
199	0xc0363989bb8d4719	-22.22475788306392
200	0x4090ef1b898d1698	1083.7768919034042
201	0xc052ff5ae5129183	-75.98992277921029
202	0x403240e0f07f9b11	18.25343230357527
203	0x4090f5e3e089039d	1085.472536221357
204	0xc0051d470ee1052a	-2.639295688860007
205	0x404df1febb3b38db	59.89058628455833
206	0x4090b307b77b47d5	1068.7575358641236
207	0x403b6eb8b1d69654	27.432505717172106
208	0x404e20b462445b18	60.25550487840354
209	0x409099b8eb7798b0	1062.4305857359832
210	0xc045a6f75a62bf54	-43.304423616615765
211	0xc039df1424617c3f	-25.871401094246036
212	0x4090dbf648941fc9	1078.9905112404251
213	0xc03ab1eaa8ea9eb4	-26.694986874847658
214	0xc038209d5ca35056	-24.127401151534592
215	0x4090d2b27ccc325c	1076.6743041902291
216	0xc05068972c1a8a27	-65.63422682372821
217	0x404a425d2ca7e9b8	52.51846845816493
218	0x4090e78d66e2c9e4	1081.888087791035
219	0xc048b8c240325d46	-49.44342806300351
220	0x404c1fd68ebabeeb	56.24873527639814
221	0x4090dfb6a8a63cfb	1079.928377721283
222	0x403adcf35ae436df	26.86308830329551
223	0x4039e4178abb4733	25.890984221193502
224	0x4090adff3cbf6fe4	1067.4992551719706
225	0xc034878c9aff2305	-20.52948921898771
226	0x404d3d0dbb6cc0f2	58.476981571295156
227	0x4090c6b84cca96fd	1073.6799804358154
228	0xc01ccf87bb2b25b8	-7.202666210659508
229	0x404df16c6bde0a97	59.88612125722755
230	0x4090b7fcc2032dfd	1069.9968338486499
231	0x404b5327f34646a0	54.64965668612899
232	0xc032015a4ba5b9b0	-18.00528404994992
233	0x4090917ab861098d	1060.3698439752654
234	0x404370b073654743	38.88038484997971
235	0xc03766aed29d3bbb	-23.401105082881013
236	0x409099e8513cb759	1062.4768723952204
237	0x4044e7ad7fbda02e	41.809982268896746
238	0x40409bcabf94eb23	33.217124889101136
239	0x40909ff926ccc56f	1063.9933120723251
240	0x402d03cf3afc7e5a	14.507440417596786
241	0x403a7ea79b622299	26.494744979342247
242	0x4090b35af1818f8e	1068.8388118976468
243	0xc0242aeea57ee6b6	-10.083851978054877
244	0xc037c2c2bde326f6	-23.76078402324398
245	0x4090c8631f9d281c	1074.0968002849322
246	0xc032e3663351cabb	-18.888278205364923
247	0xc0379e55dd378682	-23.618497682624827
248	0x4090cd0241d27405	1075.2522042163193
249	0xc025886e18bca847	-10.766464970616779
250	0x404dcffee28e0bfd	59.6249659722889
251	0x4090bd07fe4342fd	1071.2578058728825
252	0x404bb185e6633f21	55.38689880224252
253	0xc0171209192f9510	-5.767612832574073
254	0x4090918045102ea3	1060.3752634552445
255	0x404b68c2e1676232	54.81844728038813
