data/cameraParams_updated_measured.npz (npz, 5888 bytes, 4 tensors)

cameraMatrix f8 [3, 3]
000000 31 6b af f3 aa f1 a5 40 00 00 00 00 00 00 00 00
       2808.8338904207562 0.0
000010 24 75 bf 9d 06 0e 80 40 00 00 00 00 00 00 00 00
       513.7532305677055 0.0
000020 3f bf 56 8b fc f3 a5 40 ad 9f c7 70 ea 36 82 40
       2809.9932505711035 582.8644729228596
000030 00 00 00 00 00 00 00 00 00 00 00 00 00 00 00 00
       0.0 0.0
000040 00 00 00 00 00 00 f0 3f
       1.0

distortionCoefs f8 [1, 5]
000000 bb 49 cb b5 b6 e8 bd bf 24 9e 11 b6 8f f8 f1 bf
       -0.11683217943508499 -1.1231839286864522
000010 55 64 36 76 9b 78 6e bf f5 73 3e 38 46 55 62 bf
       -0.0037196194040914157 -0.002237927577836358
000020 b2 d5 8b 21 d0 ef 23 40
       9.968384788818046

rvecs f8 [99, 3, 1]
000000 50 c8 04 0f 23 5c db bf fa f4 79 f1 b4 8e e1 3f
       -0.4274985930125057 0.548670264848311
000010 6f 82 69 bc f9 2e b9 3f 88 b9 3c 93 75 da b7 bf
       0.09837303972154542 -0.09317717404039716
000020 19 05 24 5e 9e 53 df bf f2 91 b6 1e 85 4a 06 40
       -0.48947867577960974 2.786386718699071
000030 ff c6 76 86 20 b0 d7 bf 13 c3 53 b9 82 eb d2 bf
       -0.37012494212386565 -0.2956244287334339
000040 53 9b fe 40 7a 0f ff bf 37 50 00 01 92 16 d3 3f
       -1.9412786997651963 0.2982525834825113
000050 4f 13 45 dc ed ee c5 3f f9 e9 0a 0f ef fc b6 3f
       0.1713540387665042 0.08979696385623716
000060 ed 22 36 47 71 61 d6 3f a9 7d 70 c1 de 7c be bf
       0.34969741777653846 -0.1190928671135142
000070 bc ce d6 ec a7 45 b1 bf 58 9a 69 fd 6a 13 e4 bf
       -0.06746911556438823 -0.6273703526938545
000080 f4 aa 9d c9 97 a8 ba bf d2 87 c2 ba ea 36 fc 3f
       -0.10413502380621847 1.7634074492748266
000090 ff fe ed 79 4b c3 de bf 8a 25 66 47 2d 16 d5 3f
       -0.48066985041803884 0.32947856876906967
0000a0 fc c8 f6 40 28 b1 04 c0 f5 6e 19 4f f8 ac d7 bf
       -2.5865025592148623 -0.36993224834962685
0000b0 75 2c e5 cd 54 ee c6 bf a8 b3 b5 83 0e d6 f7 bf
       -0.17914829305150062 -1.4897599358475677
0000c0 3b 49 3a ba 79 f1 d9 bf 3d f7 bb 91 7d 38 db 3f
       -0.4053634947423636 0.4253229067979765
0000d0 ff 6b 63 16 f1 ea d1 3f fc 74 75 0e e0 36 d5 3f
       0.27996470629085474 0.33147431766504076
0000e0 d6 3a 27 0d bf 3e a4 bf 5e 4d 37 d8 71 c5 ae bf
       -0.039541216235752394 -0.06010013355594411
0000f0 cd c3 2e a4 47 d1 e8 bf 38 69 a3 b4 87 f7 be bf
       -0.7755468565647959 -0.12096450958361948
000100 1c 37 72 11 76 fa f7 3f e7 e3 2f 4e 8d 3e d8 bf
       1.498647754811322 -0.37881786952453783
000110 f2 9d fd 7b 91 b4 c8 bf f3 be e7 b1 aa 1c f9 bf
       -0.1930105071471498 -1.5694987248825185
000120 62 9e 8e 45 2a 18 d5 bf b4 34 e4 f7 70 f6 df 3f
       -0.32959992211042366 0.49941658218524343
000130 9c 4b 09 49 e1 fb b4 3f e0 fc 65 66 ba 70 d8 bf
       0.08196838410485302 -0.38188037872164493
000140 a1 97 f7 c3 48 fc c8 bf 8f 88 71 f4 04 25 f9 bf
       -0.19519910401066645 -1.5715379284452273
000150 3c fd 28 b2 86 eb d8 bf ab ba a3 07 ec 74 cb bf
       -0.3893753757328857 -0.21450567601228462
000160 2d 4e f2 4f 0e 36 fa bf cd 0f d3 e4 93 50 e2 bf
       -1.6381972430143705 -0.572336146281026
000170 4a 46 84 4f 24 a8 e0 bf 6a fd ee c3 11 a3 01 40
       -0.5205251267490862 2.2046237284954957
000180 60 45 7a 84 69 11 d6 bf 4d 71 47 49 de a0 d7 bf
       -0.3448127549864548 -0.3691936221710151
000190 c9 4c 53 1a ba a6 01 c0 35 d1 d7 b5 d4 19 d6 3f
       -2.206409650485146 0.345326592999544
0001a0 8b 28 4d 6d 16 2a d4 bf 5c d1 f5 52 d3 7a cd bf
       -0.3150688235661014 -0.23031083632271077
0001b0 1e 78 94 99 35 48 d2 3f c6 9b 55 b5 c9 22 d6 bf
       0.28565731046717413 -0.3458732863277273
0001c0 a4 a3 aa 40 3f 9d f0 bf 83 91 fd 38 2b b6 90 3f
       -1.0383904005086402 0.016319918969558877
0001d0 ea d8 29 ab da 55 de bf 75 5a 36 49 fe 21 07 40
       -0.47399012293989407 2.8915982932770086
0001e0 c1 37 6d 3a c2 04 d7 3f b9 1b 6d 28 dd db 8c 3f
       0.35966544824338703 0.014091232105455253
0001f0 63 e8 88 7d 25 1c 9c bf a4 54 9c 6f 12 e6 d8 bf
       -0.027451120173488507 -0.3890424814174571
000200 61 86 f1 52 63 f8 c8 bf de 77 ea d0 45 64 f9 bf
       -0.19508019971822235 -1.586980644300176
000210 41 d3 d4 e1 7f 73 d2 3f a9 e9 e6 ea 83 fc d3 bf
       0.2882995324501288 -0.3122873109784004
000220 47 c9 c8 66 94 9e ea bf 99 a2 66 0f c2 1e d7 bf
       -0.8318578727251315 -0.3612523222350688
000230 f0 27 cc b5 63 ad c9 bf 50 3c 07 3d dd 44 f8 bf
       -0.20060392739134114 -1.5168125518719258
000240 5e c7 9a 32 95 32 d7 bf 39 84 fc 8c aa 43 d1 bf
       -0.3624623293099968 -0.26975501793100737
000250 7c e0 db 86 50 6f fc bf 2a 32 e1 6e fb 41 d5 3f
       -1.7771764057088424 0.3321522314843458
000260 e4 cd 1a e6 27 c0 bf 3f 9b 47 0e 00 69 64 a9 3f
       0.12402581565657261 0.04959419370346937
000270 be 56 4b 32 ef 6f d5 bf 7c 50 66 cb fc 4b d5 bf
       -0.3349569312243651 -0.33276290763138383
000280 68 ae 2a 19 9d 90 03 40 14 60 77 93 bd 60 db bf
       2.445612141242055 -0.4277795734501535
000290 d1 3a 07 f3 b7 92 b6 bf 74 93 59 f3 40 b3 02 c0
       -0.08817624743754073 -2.3375262271605894
0002a0 c9 19 be 16 66 08 d7 bf 53 e1 2c 0a dc 90 c8 bf
       -0.3598876211257474 -0.1919207620319506
0002b0 ed 77 c2 3c e8 d0 f7 bf 64 21 03 69 f0 de eb bf
       -1.4885027287887127 -0.8709642458934863
0002c0 de a4 fd 97 19 77 aa bf d6 cd 03 e5 cd 5e f1 3f
       -0.05168991070133598 1.0856455751316978
0002d0 ca 3b b4 fe e4 8a d5 3f e4 ad 25 b8 ae d7 d1 bf
       0.33660244821015495 -0.27878921492694375
0002e0 11 8e 43 f1 70 07 d4 bf b1 98 d7 bf fa 36 d7 bf
       -0.3129541736691133 -0.36273068174922246
0002f0 c1 c1 27 c2 16 b0 c6 bf 70 c6 c3 fc 70 6f f7 bf
       -0.17724880676497715 -1.464707362520496
000300 0a e2 44 e5 5e 87 d4 3f c8 43 17 32 c5 dd d8 bf
       0.3207623709636499 -0.3885357846420985
000310 ce d1 83 ae c4 b0 e3 bf 3e c4 c2 ae 14 d4 d2 3f
       -0.6153281601423772 0.29419438425526667
000320 1f 3f a1 0e 2d 2c d6 bf af 82 5e 2f da 02 e3 bf
       -0.3464462893361872 -0.5940981793574646
000330 37 c4 21 7b 6d 83 d7 bf 72 69 84 f8 05 a8 c6 bf
       -0.36739670776939043 -0.17700266489630284
000340 f1 8b 7d 81 d4 a2 f7 bf 6f ad 2f fc 8c f6 eb bf
       -1.4772534425944708 -0.8738465238106253
000350 17 1d ce eb 54 24 7d 3f 28 af f0 84 1e 12 eb 3f
       0.007114726756191978 0.8459618183601139
000360 c7 62 2a 10 fc 07 d7 bf 16 9e f0 83 bd 72 c7 bf
       -0.3598623426310436 -0.18318909590128446
000370 c6 92 65 e9 4d 89 f7 bf 3a c8 cc cd 5a 0f e3 bf
       -1.4710215680180894 -0.59562435336398
000380 5b 33 65 a7 2c 6f d6 3f f5 bf 05 7e d7 3f d2 3f
       0.3505355486602661 0.285146592205819
000390 47 7b 28 c4 b8 9b e0 bf 2e fd 2e 3f e1 4b c8 3f
       -0.5190090018476007 0.1898156698716575
0003a0 9f 6a 13 44 7c 2d 03 c0 2d 3a 96 3c 86 69 d8 bf
       -2.3972096746850435 -0.38144069592172763
0003b0 5f d1 e0 c5 e5 8c d0 bf 58 01 9c 83 e4 d5 fc bf
       -0.25859970401804405 -1.8022198811523449
0003c0 4f ad 4b bd 91 03 d6 bf 0a 86 a3 bd 90 a8 d5 bf
       -0.3439678524579976 -0.3384134151402526
0003d0 64 c5 76 17 05 9d 00 c0 f4 75 cf 0c db 14 d5 3f
       -2.0766698678132105 0.32939792872443197
0003e0 8e 28 e2 24 44 71 d1 bf 98 98 e4 14 ff 71 da bf
       -0.2725382194700011 -0.41320778885200005
0003f0 57 07 cb 15 fd 5c d4 3f ea 15 45 be 5d b2 d3 bf
       0.31817557457190077 -0.3077616079429776
000400 13 d0 01 4f 61 c1 df bf 91 da 08 3f fe 4f eb bf
       -0.49617798533950114 -0.8535147887367477
000410 08 0d f5 a6 fb fa bf bf 99 62 ec 39 4f 9d f5 3f
       -0.12492344690422297 1.3509056341773997
000420 2e 0c c0 19 13 78 d5 bf dc 40 6c 21 de 10 e0 3f
       -0.3354537726847323 0.5020590451040579
000430 30 6a 79 5d 1a f4 b0 3f 83 96 00 11 ae fc e9 bf
       0.06622471601569013 -0.8120947200847727
000440 4e 54 29 5b 75 e8 b7 bf fd 5f f2 21 94 ea f3 3f
       -0.09339078403111609 1.2447701765104278
000450 4a 09 d0 e7 ae 32 da bf 67 a4 99 bf 15 8e d9 3f
       -0.40934345853761 0.39929717741921994
000460 bd b3 41 39 67 1a 06 c0 1f 18 0e 00 20 41 dc bf
       -2.7628921960044566 -0.44147491460205573
000470 4f 65 e6 29 10 7d b2 bf 0c 06 ef 31 00 70 02 c0
       -0.072220812062729 -2.304687872034952
000480 74 e0 fa 6d 05 0a d7 bf af 9b 60 78 6d 43 cd bf
       -0.3599866460822405 -0.2286202276020197
000490 e2 09 8e 46 58 10 fa bf 14 7c a4 25 8c 18 d7 bf
       -1.6289904361770984 -0.36087325740840126
0004a0 89 9a 8b 25 7e 2f d0 bf 0d d2 69 72 8e 92 fb bf
       -0.2528987280515272 -1.7232803792259148
0004b0 61 5a 60 8a 40 e5 b2 3f 1b 7e 9b bd 54 cb ba 3f
       0.07381060961083953 0.10466508511625998
0004c0 8f a6 5b 7c 9a 00 f6 bf 4d af 6d 95 c7 c2 dd bf
       -1.3751473291144156 -0.4650134047758357
0004d0 e4 9c 6b 9a e0 47 e1 3f fe 1b 7d 93 f8 95 d1 3f
       0.540024091341277 0.2747785034484308
0004e0 fe 46 de 08 4c 04 d7 bf e2 ed 66 49 01 dc d4 bf
       -0.35963726869623247 -0.3259280411545814
0004f0 2b 20 b1 54 2b 6f 00 c0 ea ed bf 2f b2 a8 dc bf
       -2.054281865745016 -0.447796389227476
000500 1b ca 56 92 28 94 da bf 97 46 60 8b 76 95 02 40
       -0.4152928761569982 2.3229800118213677
000510 d4 e4 76 fe 62 ea c8 bf d1 02 a9 61 28 3f db bf
       -0.19465291428585962 -0.42572984254006224
000520 86 64 ac 96 ed 4a 05 40 5c dc ff 52 bc fb d5 bf
       2.661585976730353 -0.3434897242108883
000530 0b cc 6a 20 fc e3 d6 bf f6 b6 02 a4 57 5c 01 c0
       -0.35766509214153136 -2.1700890363052805
000540 0b 5b 7b 86 16 7e d6 bf f7 60 ac 79 84 fe d3 bf
       -0.3514458001422304 -0.31240951425708324
000550 84 53 86 d5 2f 76 ff bf a9 59 63 c8 98 ec d6 bf
       -1.9663542118844086 -0.3581907231249724
000560 75 ad 02 a4 86 90 cc bf 4b ab d5 bf 7c 82 f9 bf
       -0.2231605816681214 -1.5943572515049762
000570 1c 96 be 14 20 8c d8 3f fc e6 13 b9 ca 5a d2 bf
       0.3835525705893319 -0.2867914969825589
000580 81 61 d8 25 52 3f c2 bf d3 b4 7f 93 4d cb d7 bf
       -0.1425574002066803 -0.37178363231835226
000590 2f fe 3a 74 6f f5 c7 bf 15 41 a6 2a ea 9c f8 bf
       -0.18717759299578193 -1.538309256171549
0005a0 fd a9 ec 0c 94 f0 d5 bf eb 34 71 94 3c 5e d7 bf
       -0.3428087354865566 -0.36512674804983075
0005b0 a7 29 13 96 3c 93 01 c0 61 35 72 74 1d 90 c9 bf
       -2.1968929028127664 -0.19971054254385037
0005c0 24 93 e9 f5 2a d1 db 3f e8 a2 03 94 b8 5f ab 3f
       0.4346415902603431 0.05346466833890934
0005d0 7f 64 64 08 52 4a ea bf 29 5f a9 c5 fe 3b a9 3f
       -0.8215723194035859 0.049285852078069965
0005e0 d0 61 ac b0 fe 38 e1 3f 1f ec 33 ac 5d a3 d7 bf
       0.5382073832179746 -0.3693460637729817
0005f0 aa 03 ac d4 c3 8a cd bf 02 65 be 65 b7 99 f9 bf
       -0.23079727062579752 -1.600028417049828
000600 fb 5d 47 2d 03 a7 da bf 0c 22 71 62 51 4a c5 bf
       -0.4164436285186352 -0.1663305025742975
000610 c8 86 5b 98 ef 6b fc bf cc 5f 21 39 08 d9 d4 bf
       -1.7763515426126322 -0.3257465894616842
000620 5c 5d c1 44 4a cc dd 3f 95 f2 4d f1 76 bd 07 c0
       0.4655938788832452 -2.967512021247169
000630 49 4d fe 01 e5 ca e4 bf b0 59 13 2b f8 51 dd bf
       -0.6497674025471635 -0.45812801558113403
000640 41 e9 7f 43 2d 92 00 40 2e 71 75 bb 73 4f d7 bf
       2.071375396100081 -0.36422437006492003
000650 9d 99 60 5e 61 7c e1 3f 74 55 96 0f 47 41 b7 3f
       0.5464331477458476 0.090839806848029
000660 ef 9e 47 01 94 71 aa bf b7 ae 43 99 4f 6d d6 3f
       -0.051647782474729335 0.35042180983758037
000670 50 84 96 cf 80 bc ae 3f 2a 89 c6 21 6d 3e de bf
       0.06003191503555938 -0.47256019876853605
000680 72 b8 4f 68 fa 17 8c bf ab 75 11 10 42 01 02 c0
       -0.013717609699565456 -2.2506142859771976
000690 fc f4 84 37 71 46 d9 bf 47 ea e9 cc 16 92 c7 bf
       -0.3949244539433747 -0.1841457844310119
0006a0 3f cf c6 1b 3b 7e 02 c0 1e e3 42 d7 fe 8f eb bf
       -2.3116361780211316 -0.8613275722810589
0006b0 0a 1b 88 51 00 6d a3 3f e8 19 73 dd 81 f1 e5 3f
       0.03794098849544099 0.6857308697879576
0006c0 e0 b5 15 90 db 31 e3 bf f6 c7 27 9c 26 15 d8 3f
       -0.5998361410290123 0.3762909436183003
0006d0 38 22 39 e4 54 b5 d3 3f e1 2e 31 3c c5 05 d6 bf
       0.3079426029912926 -0.34410220029961464
0006e0 6e f8 20 ae 11 a6 d6 bf 33 d3 d0 e1 f8 26 01 c0
       -0.35388605122341843 -2.144029392419179
0006f0 bb fd f6 b3 cb 82 dd bf 80 9e fe 1e bd 83 e1 3f
       -0.461108136889347 0.5473313908923529
000700 f7 0c 71 04 7a a2 c0 3f 18 40 93 3a 6a a6 d8 bf
       0.12995839325785827 -0.3851571628592878
000710 e9 23 6a a7 27 f2 e1 3f 5a 56 64 ff e3 a8 b6 3f
       0.560809924108182 0.0885145662799344
000720 3c b3 fe 6d 6b fc d7 bf 9e 10 9f de 74 80 c7 bf
       -0.3747814726037182 -0.18360768194373106
000730 a5 98 46 e1 57 7a f8 bf 5d 89 04 da be 66 d7 bf
       -1.5298689651331554 -0.36564608851235453
000740 08 4f d6 53 31 07 c7 bf ae 68 3d 96 83 95 f7 bf
       -0.17990700334177512 -1.4740024441476112
000750 19 64 9a 4d 5b 9f d8 3f 68 14 60 bf 26 7e c7 bf
       0.3847263582079577 -0.18353733391282678
000760 ad 68 04 01 5b 46 b9 bf 95 78 1d a9 ce ed d2 bf
       -0.09872978949389007 -0.295764603759275
000770 9b cb c9 dc fe 7d da bf 9c 15 dd c1 c1 6b 03 c0
       -0.41394015847543536 -2.4276156564325913
000780 74 b9 31 3d a5 26 d6 bf f3 d9 b0 4f fe 4c d1 bf
       -0.3461087319946252 -0.2703243044119567
000790 64 90 2c 8b 25 53 fd bf bd 7b 01 e1 bc db d4 bf
       -1.8327994762885504 -0.3259117314645968
0007a0 35 a1 8c 4b b9 c4 d5 bf 8e 02 86 b9 47 2e 01 c0
       -0.3401320684229348 -2.147597741510544
0007b0 78 2c 7c 06 3f 67 d9 bf 83 5b 12 b8 7f e2 e1 3f
       -0.39692664750391016 0.5588987918043674
0007c0 e9 36 a2 47 50 28 b8 3f 51 64 37 95 47 ce d8 bf
       0.09436513661259095 -0.38759030887519424
0007d0 a8 c5 65 37 c9 5e c9 bf 78 8d bd d8 44 72 f9 bf
       -0.19820513920744287 -1.5903976885245736
0007e0 16 7f d7 cc f8 05 d9 bf 56 0b 83 e0 42 54 c8 bf
       -0.39098949436264385 -0.19007144892210687
0007f0 e1 6a 16 47 ab 04 f9 bf 71 4d 67 ce e2 b2 ea bf
       -1.5636399056299342 -0.8343366652792793

tvecs f8 [99, 3, 1]
000000 bf 61 ac 69 3a e4 53 40 13 3a 18 32 ce eb 40 c0
       79.56606523355639 -33.842230092839735
000010 28 07 e1 57 87 33 80 40 61 b2 43 6e cf 0e 1e c0
       518.44108558467 -7.514463160402188
000020 00 5b c4 b4 f0 62 43 c0 62 07 aa 07 93 6c 80 40
       -38.77297076785726 525.571791962004
000030 29 1d ac 67 e2 97 48 c0 68 9c 78 20 f4 33 44 c0
       -49.18659683135986 -40.40588765992362
000040 e4 c3 75 29 c9 ce 81 40 d2 93 d2 9c 86 d0 43 c0
       569.848223609963 -39.629108050175674
000050 a8 b0 55 7d 23 af 54 c0 46 25 79 eb be 33 80 40
       -82.73654111259623 518.4682225670338
000060 ea 42 c0 d5 17 87 50 c0 0b 23 64 c7 6a 6c 47 c0
       -66.11082977080846 -46.84700863255974
000070 8b 82 6d 5f c7 b7 7e 40 2b a8 8d f0 e3 89 28 c0
       491.48617499139135 -12.269317166607001
000080 d1 6b f3 6f 2b f0 31 c0 60 7c c4 e4 af 42 80 40
       -17.938162800721162 520.3358855581719
000090 42 a5 5a 48 54 55 4c 40 70 6f 6d 84 23 06 40 c0
       56.666634601841466 -32.04795890182038
0000a0 13 71 46 3d 7c 64 80 40 23 d0 04 a6 6c d5 19 40
       524.5606637480981 6.458422273677601
0000b0 e3 8a d2 09 88 ed 44 40 bb 59 3f 07 ba 78 80 40
       41.85571406155011 527.0908341359385
0000c0 73 64 73 4e 57 48 4e 40 f1 f1 b7 39 2f 4f 2e c0
       60.565164381355224 -15.154657176689371
0000d0 4c 01 35 5b 2d 90 7f 40 20 99 c7 86 35 12 54 c0
       505.01107330994705 -80.28451699726111
0000e0 be 6b d5 5b 61 c9 4c c0 5e bd 6b 40 18 78 7f 40
       -57.57328365250531 503.50592081151797
0000f0 05 dc 30 5a 28 4c 1a 40 c0 6d 51 bd fd e0 0c c0
       6.574372681839127 -3.609858969733722
000100 e1 b8 b8 cc 8b c5 7f 40 08 90 6a 5c f1 fb 48 c0
       508.3466307845793 -49.96830325320485
000110 11 3d 5f 3b b4 0e 43 40 15 6e c8 5f 95 b6 80 40
       38.114875241759485 534.82293659769
000120 1e 25 08 8e a4 0f 4b 40 9e 6e ba 57 f2 d2 54 c0
       54.12220931432442 -83.2960414238573
000130 19 ff 56 15 34 a0 80 40 a9 e3 a1 60 c0 87 4d c0
       532.0254313274955 -59.060558394477376
000140 ab 5a 9c 7d fa d0 42 40 31 da 1e d4 43 c0 80 40
       37.63264436850053 536.0331194315278
000150 72 18 fd ea 61 23 53 c0 bf 96 8e 43 22 ea 36 c0
       -76.5528514358173 -22.91458532553838
000160 80 66 be 15 62 ae 81 40 e1 ec 22 ca 21 a6 16 c0
       565.7978930354147 -5.662238272077247
000170 08 95 03 a9 4f 68 f0 bf 99 73 5b 74 58 47 7f 40
       -1.0254665948971837 500.4590953419043
000180 84 d6 a9 cd 42 49 3f c0 a2 34 3d ea 7c 1b 4e c0
       -31.286175588573784 -60.21474960316233
000190 52 d1 73 c2 42 06 82 40 fb e7 72 fa fd e1 51 c0
       576.7825974510436 -71.53112660619074
0001a0 bf e5 b5 a8 47 ae 35 c0 c9 16 d6 ac 10 44 7d 40
       -21.68078092995506 468.2540710795261
0001b0 62 89 fe 64 37 0f 19 40 4f 38 9e 62 9a a7 34 40
       6.264859750781712 20.654699481609267
0001c0 24 f0 45 17 6c ca 7b 40 a0 cf ae ea 06 0f 1c 40
       444.6513893825488 7.014674822730655
0001d0 7b 3c a8 9a bf 2b 47 c0 e1 b3 69 4f 69 80 80 40
       -46.341784793993575 528.0514209993381
0001e0 f9 12 79 1a cd 40 52 c0 47 81 f4 b4 22 5e 50 c0
       -73.01251851867336 -65.47086833836975
0001f0 d3 fb e8 b6 a5 c8 7f 40 da 2a 7b 85 95 d9 54 c0
       508.54045763978246 -83.39975106266084
000200 15 ac 3e f0 55 2e 32 40 e6 ea de 6d 97 1e 81 40
       18.180998816777066 547.8239400306163
000210 0a b8 bb 11 9f 21 05 40 00 e6 79 96 91 2d 2a 40
       2.6414166818058264 13.089001371746235
000220 3b e0 24 a1 6c de 7b 40 c8 61 f1 15 e0 df 50 40
       445.9015208664384 67.49805210659463
000230 b5 be 04 94 e4 cb 3c 40 da 24 a6 c6 58 71 80 40
       28.796456576498446 526.1683476428982
000240 63 24 fe 22 a8 2b 50 40 2b 6a 25 8f 23 49 48 c0
       64.68213724917 -48.57139767958537
000250 ea 11 2d 3c 2e 90 81 40 52 f6 1b a8 c3 8c 49 c0
       562.0225757142155 -51.09972096791593
000260 35 bc 6f 7a b2 f1 52 c0 97 03 8f 7b b2 19 80 40
       -75.77651844894065 515.2121497319193
000270 05 bc 98 d6 f1 2c 31 c0 5a 6e 56 2d 34 12 33 c0
       -17.175565159119305 -19.071108659364064
000280 ed 9a 83 02 a8 36 80 40 df 28 33 99 ed 53 51 40
       518.8320360452323 69.31137685771999
000290 d5 e0 a7 52 51 68 e0 3f ca ba 8f 37 97 6d 80 40
       0.5127340902681917 525.6988364437941
0002a0 d4 51 e6 4b 28 0e 51 40 c1 e5 3f 7b 25 54 42 40
       68.22120950214531 36.65739384288782
0002b0 d3 1b 6b cb 9c 53 80 40 d3 24 f1 64 3c a5 31 40
       522.4515598647944 17.645452793953904
0002c0 7c b6 c4 41 af 6d 24 c0 2d 81 5f 4c 7d d8 7f 40
       -10.214227729094311 509.5305904131554
0002d0 d9 a2 3c 6e be c2 4a c0 be 9d 18 56 2e a4 2c c0
       -53.521436481101496 -14.320666018013863
0002e0 d7 36 e6 e8 53 80 7d 40 6a 13 d6 6a dd 45 44 40
       472.0204857819312 40.54581962063715
0002f0 ac fa 8b f0 2a ea 45 40 ee ce fe 80 86 55 80 40
       43.82943541369363 522.6906757265949
000300 e7 8f 0b 3e 0d 3f 25 c0 24 2c 9c e2 8c 4a 2a 40
       -10.623147906218902 13.145606118740098
000310 14 ce 38 b8 b2 aa 7c 40 87 6e 65 f4 86 18 36 c0
       458.6686327189393 -22.09580924488412
000320 72 89 3f b0 81 e1 29 40 9a f6 52 38 ec fc 7c 40
       12.94044256949994 463.80767090232405
000330 5d 16 fb 7c 03 39 30 40 1b ae de f1 83 27 45 40
       16.22270947580397 42.30871413586666
000340 0d 6f 0a b7 ec 6e 80 40 16 bd a7 cc 63 a6 32 40
       525.8655834975376 18.649960318519412
000350 25 2c 6a a4 09 6f e4 bf 47 7e 35 3b 9a ba 7f 40
       -0.6385544024682345 507.66265412231263
000360 0e fe d3 8c f7 96 4a 40 9a db d9 8a 67 6e 44 40
       53.17942962981407 40.862534862876785
000370 ce 13 da 7c 0b 55 80 40 5f b1 99 b3 1d 6a 45 40
       522.6306092297834 42.82903141979727
000380 b7 92 f8 f4 c6 13 40 40 e6 2c b9 ff 66 3d 7f 40
       32.15450918328627 499.83764622053275
000390 d3 01 14 c0 61 dd 4f 40 34 e8 70 49 32 4f 31 c0
       63.72954560257826 -17.309361066880413
0003a0 86 3b 31 72 ba 56 80 40 d0 aa db eb 39 9c 4e c0
       522.841038117055 -61.2205176184267
0003b0 08 d6 15 13 9b 9a 40 c0 35 3b 0e 92 0d c1 81 40
       -33.207857499754084 568.1316262351817
0003c0 45 37 e0 13 3b f2 3a 40 9c 38 84 c8 36 60 48 c0
       26.94621395324727 -48.75167185264692
0003d0 db 54 89 4d 0a af 81 40 69 cc d1 a0 f2 93 46 c0
       565.8800307015439 -45.15584192508761
0003e0 a7 42 ed 77 e3 49 19 c0 41 de 66 da 94 74 7d 40
       -6.32215678582785 471.2863410967148
0003f0 97 93 d4 86 6c 8a 44 c0 8b 44 4b de c7 07 1e 40
       -41.08143697147096 7.507598374694804
000400 91 c7 f1 7a e6 60 7d 40 ca 3c 0f 43 dc e6 30 40
       470.05626959271564 16.901798430652697
000410 52 d6 eb b3 c6 ff 00 40 f6 39 58 fb d3 6d 7f 40
       2.1248907142969893 502.8642533727974
000420 3f a0 ed fc 63 d2 41 40 e1 7c 56 b6 21 c3 54 c0
       35.64367639162855 -83.0489326328857
000430 a6 b8 91 92 d3 c3 80 40 e5 1c 75 ab bf d6 33 40
       536.4783069023586 19.83886214837266
000440 5a 53 c3 4b 5c 19 20 c0 7b 17 1b 2a 0a ad 7f 40
       -8.049532287209946 506.8149815614958
000450 48 85 90 eb 43 d2 47 40 d2 24 ab b1 1a a5 44 c0
       47.64269775921508 -41.289877136770556
000460 be 45 61 45 4a 7b 80 40 59 4c 12 a8 9c 1f 51 40
       527.4112651442917 68.49393655573785
000470 57 bc 8c b3 a4 29 01 40 da be d6 ce d8 64 80 40
       2.145333674175656 524.6058632637971
000480 9a 5b 00 32 b7 86 53 40 3f 90 c1 c0 0a 7e 33 40
       78.10493135485595 19.492351577049927
000490 0d a0 9e a9 68 87 80 40 ab 7c fb 09 f8 12 52 40
       528.9261047737688 72.29638909873272
0004a0 70 64 fb 6c 7a 48 3c c0 4e c0 f9 af c3 3d 81 40
       -28.2831180680991 551.7205504905521
0004b0 07 5e fd 29 40 29 1e 40 b6 76 7d 02 4f ac 31 40
       7.5402838288205265 17.673080592757024
0004c0 bb ca e2 a3 8f 42 7f 40 bf 79 54 c6 43 23 55 40
       500.1600684031543 84.55101164102142
0004d0 ec 9b bb 2b 22 a0 23 c0 03 d1 d8 c9 3b c1 7f 40
       -9.812760702754495 508.0770967931168
0004e0 92 2c 59 59 b9 76 44 c0 70 cc 82 cf f3 44 49 c0
       -40.92753140310482 -50.53869050871515
0004f0 68 1c 15 2b c3 ee 81 40 93 15 c1 e7 0a c5 29 c0
       573.8452970170301 -12.884848825759752
000500 97 1c 39 30 16 52 20 c0 9c a3 a0 d3 b1 d4 7f 40
       -8.160325533839837 509.29341471433304
000510 63 7e 01 25 76 81 35 c0 33 e1 9d 70 31 a2 40 c0
       -21.50570899282901 -33.26713378628701
000520 46 bb 93 e1 db 69 80 40 43 d3 b3 8f 92 9a 0d c0
       525.2323638478781 -3.7004748560670193
000530 a6 db 2c 97 66 bb 46 c0 9f e2 19 44 10 b8 81 40
       -45.46406831446011 567.0079423925671
000540 fb 19 37 0d d8 33 46 40 5a 56 de fd 72 90 47 c0
       44.40503087225439 -47.128509267390385
000550 9f f6 0e 22 36 99 81 40 5e 4d ab e9 14 68 53 40
       563.1514321488393 77.62627641419155
000560 99 52 07 5d bd 72 32 40 ad 14 e1 1a b6 8e 80 40
       18.448201956069713 529.8389184555468
000570 d1 ee 1b 75 81 ed 51 c0 9e c4 c9 ad 4e 38 3c c0
       -71.71102645614452 -28.219950544128203
000580 53 85 47 99 fb 56 7d 40 08 23 14 f4 45 61 2e c0
       469.43642547548114 -15.189986827333556
000590 b8 f1 d4 89 85 9f 45 40 4e 7f 53 f6 d0 85 80 40
       43.24626276872317 528.7270323298669
0005a0 91 55 3c c3 db f6 33 c0 15 d7 96 63 ec 0d 49 c0
       -19.96429081175808 -50.10877652039759
0005b0 9d 8f 4b 57 64 d8 81 40 49 18 9e 93 5c 6b 19 40
       571.0489946273043 6.354845339321465
0005c0 40 9e 59 57 7a a7 55 c0 f0 4d 3f 84 10 b5 80 40
       -86.6168421149423 534.6330647416744
0005d0 3a fd b0 18 a4 9a 44 40 24 5a ed 0d 73 b9 27 40
       41.20813282625245 11.862205920432707
0005e0 bf 78 82 07 97 75 7f 40 98 83 69 a9 b1 0a 53 40
       503.34937239614004 76.16709361366372
0005f0 11 b3 fc 5b 86 75 43 c0 a4 62 25 46 50 62 81 40
       -38.91816282118646 556.2891962929466
000600 3c 33 34 fd fe 47 52 40 07 58 15 f2 83 67 33 40
       73.12493829820318 19.404357080660727
000610 63 f5 a2 d8 64 67 80 40 75 28 96 a4 81 09 41 40
       524.9242413264404 34.074268887824395
000620 e7 8c 4c 9d 11 92 4e c0 64 fe 88 95 fb ab 80 40
       -61.14116255033314 533.497843809379
000630 22 13 d7 a2 d8 a5 b2 3f 4d 32 20 4c a5 45 11 c0
       0.07284311271275759 -4.318013371911161
000640 c7 5c 77 bc e7 57 7f 40 9b 8a a9 3e 9c 6e 54 40
       501.4940762198061 81.72828642422466
000650 4c db 76 b7 c5 b1 51 c0 0b f9 ba 16 94 89 80 40
       -70.77769266707509 529.197308979726
000660 2d 56 6f 58 d4 48 28 c0 c8 8a c8 fb 32 2e 56 c0
       -12.142245067206284 -88.72186178764525
000670 f2 4e f5 7e 48 84 80 40 ea 24 5f 06 21 2d 50 40
       528.5353984036176 64.70514067927766
000680 25 b4 fc 5f e3 3d 00 c0 fc 53 47 c1 be 65 80 40
       -2.0302188395494505 524.7181420872216
000690 32 3b 6d e4 8b ad 50 40 29 f4 21 f3 6c 8d 03 40
       66.7116633478843 2.444055461381613
0006a0 45 1a 0f 1c 1c 88 80 40 f5 8a 36 77 91 3b 3a 40
       529.013725393285 26.232688380066026
0006b0 7f 5c 34 38 36 84 14 40 fd b3 5a b1 59 a5 7f 40
       5.1291130811652 506.3343976538743
0006c0 77 bc 68 82 9f 07 4a 40 d5 db ef 79 dd 19 33 40
       52.059555340901106 19.10103571039129
0006d0 60 19 94 42 a8 9b 7f 40 6c 5c f1 e3 a0 cb 21 40
       505.7285791192171 8.897711871350303
0006e0 48 5a ee 2c a2 60 48 c0 1c 84 3e 53 db b8 81 40
       -48.7549492038566 567.1070923694674
0006f0 29 44 c3 24 81 c5 54 40 3a 94 c6 55 77 d2 33 c0
       83.08600730008096 -19.822133408528522
000700 a1 2e 70 f6 c8 12 80 40 ce dd 0a e8 97 ed 54 40
       514.3481262935858 83.71239663182425
000710 2e 8e ab ab 0a 90 4d c0 b7 c9 b7 7d b5 6b 80 40
       -59.12532564045647 525.463618694156
000720 f3 8f 1a 06 14 76 3d c0 77 a5 ef bf cd 88 45 40
       -29.461243039593636 43.068778984083956
000730 54 70 3d 5f 31 93 80 40 ec 94 5d 5f ef dd 37 40
       530.3991074371247 23.866933784815885
000740 17 de 35 a7 e9 ae 45 40 10 ee f5 6d ce 63 80 40
       43.36650552873851 524.4757956708218
000750 3f f0 7c 7a 76 f3 4f c0 e5 82 e6 6c e4 fd 41 c0
       -63.90205317593108 -35.98353348975596
000760 a2 55 4a f5 9d 01 7e 40 62 df f3 c5 e8 7e 51 40
       480.1010640052501 69.98295735183413
000770 64 65 fc 81 d0 22 27 c0 93 92 b0 c7 cc 06 81 40
       -11.567997037944856 544.849990252946
000780 f3 32 57 90 2c ce 51 40 d4 06 05 9e d9 b5 33 40
       71.2214699603608 19.7103518259308
000790 bb 31 ff ac b4 92 80 40 62 62 7d 4b 59 c2 50 40
       530.3382205903102 67.03670012707292
0007a0 e9 1a 88 cc 56 c7 28 40 96 4c 1b 88 7f af 80 40
       12.389334098448176 533.9372713215587
0007b0 85 ee 8e 0c 5e 85 54 40 c0 ad 5b 0a 46 95 46 c0
       82.08386529882598 -45.16619996525287
0007c0 cf 11 68 39 c7 42 80 40 8f 45 a5 e2 2d ea 52 c0
       520.3472774630008 -75.6590506185514
0007d0 a1 09 83 01 5d 47 3c 40 df 57 87 fe a5 f0 80 40
       28.27876290749703 542.0810518811885
0007e0 b3 8b 1a 72 42 4b 55 c0 81 2a 25 32 bf dc 17 40
       -85.17593052475313 5.965573104399142
0007f0 64 09 9e 29 97 4d 81 40 cc de 93 91 f3 2c 43 40
       553.698809847509 38.351183125688834
